Introduction_to_pytorch/first_model.tar (torch, 2487 bytes, 3 tensors)

linear1.weight f4 [50, 2]
00000000: e746 c13d 4fd0 87be cdec d43e bd13 213d
00000010: c464 1cbf 5b99 efbd 5726 67bf 0503 8f3e
00000020: 011f 76be b477 9dbe 9391 53be bd44 48bf
00000030: 0d24 c03f 3f30 cb3f 9924 cfbf 3f70 c1bf
00000040: 2da6 85bf f2a9 86bf 28fa fc3f 7f58 c1bf
00000050: 6010 1fbf 5f1f 0b3e 4ae7 3abf 76a0 67bf
00000060: ffe9 a2be 350b 183d 0445 39bf 6610 79bf
00000070: 14d9 c4bf 3b4c 963f ca7f 80be e429 073d
00000080: 8290 3d3f 6166 403f 7e9a f8bf 3313 2440
00000090: f9e0 403e 9f6a 873e 33cb d53f f32f 9fbf
000000a0: 22bd 19bf fda0 53be 830f 2e3f 9db2 eb3e
000000b0: cb99 9c3f 2062 903f 33c0 b93f fbc7 b93f
000000c0: fd8e febd e279 9d3e 29d2 df3f f277 1cc0
000000d0: 0aa8 ca3f 428e ba3f eea3 51bf 35d8 a53f
000000e0: 7378 15bf 341e 153e a0c0 3fbe a6a4 9f3d
000000f0: 0fcc a13d ad42 6f3d 08e4 9a3f a72b 993f
00000100: 8da1 4d3f b9e2 33be 2968 5a3f 3c9c 1b3f
00000110: bfe2 ee3e 06aa 873d 455c 0a3f 20cb 34bf
00000120: efcf 2d3e 9a50 ed3e 9bb7 1fc0 17a5 00c0
00000130: 0abb 47bf 534c 00bf 9508 88bb 151c 71be
00000140: 9f9a b6bf 069d b7bf 6dd2 4f3d ad24 fd3e
00000150: cdf4 9f3a a025 4c3f f96c 523f 57ef 553f
00000160: e419 40bf 4a5c cdbe 1f21 22bf fab6 c23e
00000170: f77c e43e 8b48 773e 3208 3040 840d 0b40
00000180: c5c4 2b3f 52cb 813e 1137 1540 2f13 eabf
0.09437352 -0.26526114 0.41586915 0.039325465 -0.61091256 -0.11699172 -0.90292877 0.2793199
-0.24035265 -0.3075539 -0.20661001 -0.78229886 1.5011002 1.5874099 -1.6183044 -1.511238
-1.0441338 -1.0520613 1.9763842 -1.5105132 -0.6213436 0.13586186 -0.7300917 -0.9047922
-0.3181915 0.037120063 -0.72370934 -0.9729065 -1.5378747 1.1742014 -0.25097495 0.032998934
0.74048626 0.7515622 -1.9422147 2.5636718 0.1883582 0.26448533 1.6702636 -1.2436508
-0.6005422 -0.20666881 0.6799242 0.4603471 1.2234434 1.1279945 1.451178 1.4514154
-0.124296166 0.30757052 1.7486011 -2.444821 1.5832531 1.4574664 -0.8189076 1.2956606
-0.58386916 0.14562303 -0.18725824 0.07795076 0.07900249 0.058413196 1.210084 1.1966447
0.8032463 -0.17566957 0.85315186 0.6078527 0.4665737 0.06624226 0.5404704 -0.70622444
0.16973852 0.46350557 -2.4955814 -2.0100763 -0.78019774 -0.5011646 -0.0041514137 -0.23545869
-1.4265937 -1.4344795 0.050737787 0.49442044 0.0012203694 0.7974491 0.8219753 0.8356833
-0.75039506 -0.40109473 -0.6333179 0.38030225 0.4462659 0.24148767 2.7505002 2.1727
0.6709712 0.25350434 2.331486 -1.8287104

linear1.bias f4 [50]
00000000: 0e22 bebd ad4f 1c3d 5c72 9b3d 1378 65bd
00000010: 3e59 f6bc a2af 033f d783 10c0 78bf 033f
00000020: 2d11 c83f bc22 493f 24cb 44be d4df 973f
00000030: 12ff 2bbf 4247 9d3f ee33 41bf cd5b e8bc
00000040: 4955 8abf f001 483f 4408 47be acef 3a3f
00000050: 5b19 16bc 84f6 0a3f b1f5 8abd 2201 bcbe
00000060: ff16 6a3e 64be 3ebf 6476 f4be ae79 273f
00000070: a08e 96bd 3507 54be 438d 883d 0842 c1bd
00000080: e84a 2bbe 7d98 89bf 3888 823e b3f7 44bf
00000090: d33e 73bd 458b a23f b42b bfbd 67ca b13e
000000a0: ac72 ac3e b716 893d 9083 19be 4651 473e
000000b0: 4be8 463f c3ad e0be d45e 163f cbee b9bf
000000c0: 3060 03bf 951d 523f
-0.09283839 0.038161922 0.07590172 -0.056022715 -0.03007185 0.5143987 -2.2580469 0.51464033
1.5630242 0.78568625 -0.19218117 1.1865182 -0.6718608 1.2287371 -0.75469863 -0.028364087
-1.0807277 0.78127956 -0.19436747 0.7302196 -0.009161319 0.54282403 -0.06785143 -0.36719614
0.22860335 -0.74509263 -0.47746575 0.65420043 -0.07351422 -0.20705874 0.066675685 -0.094364226
-0.16727793 -1.0749661 0.25494552 -0.7694046 -0.059386086 1.2698752 -0.093345076 0.34724733
0.33681238 0.06693786 -0.14991593 0.19464597 0.776982 -0.4388257 0.58738446 -1.4525999
-0.51318645 0.8207639

linear2.weight f4 [1, 50]
00000000: f4f8 1f3e defe d2be 7503 ba3e b4d9 173f
00000010: 4223 8f3e 76f7 213f 85c5 22c0 1960 d6bf
00000020: f032 d83f 8e61 10c0 4a62 043f 28fa a73f
00000030: afab af3e 8b6b a83f 1a3e d13f 8abe 1a3e
00000040: 7e9c 83bf 66f7 44c0 2fc0 a4be fe1d ebbf
00000050: 48cf 4e3e 78fe 3a3e d9c4 7e3f 2290 b23f
00000060: 567e 5fbe 6c36 3640 4970 aa3f aa8a a5bf
00000070: 490d b83e 54aa 193e 8982 89bd 5833 823f
00000080: c3c7 c0be ca58 8cbf ee82 92be 2473 143f
00000090: 01a5 e0be e567 31c0 4b8e 18be b0a7 ad3d
000000a0: 5f4a b2bf 4471 d1be a8f7 40bf 5b3a f23e
000000b0: 5159 553f 6e0c eb3e edbe f3bc 3b38 4840
000000c0: 27bf 3cbf 113b 37c0
0.15622312 -0.41210073 0.36330763 0.59316564 0.27956587 0.6326822 -2.5433056 -1.6748077
1.6890545 -2.2559543 0.5171248 1.3123217 0.34310672 1.315782 1.6347077 0.15111747
-1.0282133 -3.0776 -0.32177874 -1.8368528 0.20196259 0.18261135 0.99519116 1.3950236
-0.21825537 2.8470716 1.3315517 -1.2932942 0.35947636 0.15006381 -0.06714351 1.0171919
-0.37652406 -1.0964596 -0.28615516 0.5798819 -0.43875888 -2.7719662 -0.1489803 0.084792495
-1.3928946 -0.40906727 -0.75377893 0.47310147 0.8333941 0.4590792 -0.029754126 3.128432
-0.73729175 -2.8629801
